python/cerebro_pikachu_final.pth (torch, 274815 bytes, 18 tensors)

lstm.weight_ih_l0 f4 [256, 9]
0	0xbd1368e7	-0.035988715
1	0x3d9bfdf4	0.07616797
2	0x3ced7858	0.028988048
3	0x3d8addab	0.06780561
4	0x3be50538	0.0069891475
5	0x3d908210	0.070560575
6	0x3d3b53a6	0.04573407
7	0x3da1af71	0.07894791
8	0x3e27cef5	0.16387542
9	0x3db7006b	0.089356266
10	0xbd1f39bd	-0.038873423
11	0xbcecfb1e	-0.028928336
12	0x3daa87c5	0.08326677
13	0x3dc8e4a9	0.098092385
14	0x3de68445	0.11255697
15	0x3ddfcc96	0.109276935
16	0x3d046db8	0.0323312
17	0xbdddcaab	-0.108296715
18	0x3df6529b	0.120274745
19	0xbce7048e	-0.028200414
20	0xbdc49119	-0.09597988
21	0x3d0f412b	0.03497426
22	0x3cdbfab4	0.026852943
23	0xbd164d5c	-0.03669487
24	0x3c31599e	0.010824589
25	0x3db18328	0.08667594
26	0x3d936485	0.07196907
27	0x3cf20246	0.0295421
28	0x3ce21d29	0.027601795
29	0x3c98a109	0.018631475
30	0xbd4724fb	-0.04861925
31	0x3dc758ea	0.09733756
32	0x3cd50ba2	0.026006524
33	0xbdcbdad6	-0.09953849
34	0xbde591d6	-0.112094566
35	0x3db20812	0.086929455
36	0xbb22cdd1	-0.0024841914
37	0x3e0ca7ca	0.13735881
38	0x3d217e95	0.03942736
39	0x3e27a4c3	0.16371445
40	0xbddf1ed4	-0.10894552
41	0xbcbf54ff	-0.023355959
42	0x3c883faf	0.01663193
43	0xbb836339	-0.004009631
44	0x3d6ddc97	0.0580717
45	0x3d34d10d	0.04414468
46	0x3d2db3e6	0.042407893
47	0xbbd0aa41	-0.006367952
48	0x3d810af4	0.06300917
49	0xbc6c0839	-0.014406257
50	0x3df31d04	0.11870769
51	0x3d23cabd	0.03998827
52	0xbbf5fce0	-0.0075069517
53	0x3d9aa3ca	0.075507715
54	0x3de40f44	0.11135724
55	0x3e344fa5	0.17608507
56	0x3d498bcb	0.049205583
57	0x3d8a5093	0.067536496
58	0x3cd02901	0.025410177
59	0xbddb9c49	-0.107231684
60	0xbd07d9b7	-0.033166613
61	0xbdb7047f	-0.089364044
62	0xbdef6d93	-0.116908215
63	0x3bd1f254	0.0064070616
64	0x3c26f7a8	0.010190882
65	0x3df31608	0.118694365
66	0x3de94017	0.11389177
67	0xbca1f86c	-0.019771777
68	0x3d716980	0.058938503
69	0xbd155467	-0.036457445
70	0xbd8ad843	-0.0677953
71	0xbdf64adc	-0.12025997
72	0x3c66e2f6	0.014092198
73	0x3ddf89b6	0.10914938
74	0xbd3140ff	-0.043274876
75	0x3dc18dab	0.09450849
76	0x3cb1a47f	0.021684883
77	0x3d510e0b	0.051038783
78	0x3d9cd3e5	0.07657603
79	0x3d2ec82a	0.04267136
80	0x3c0b6b22	0.008509429
81	0x3dbda24d	0.09259472
82	0x3dd86dc6	0.105678126
83	0x3e1e4a68	0.15458071
84	0x3d2fd3c8	0.04292658
85	0x3d6361f9	0.055513356
86	0x3da966fa	0.08271594
87	0xbcb82b02	-0.022481445
88	0x3df8cf3d	0.121489026
89	0xbbba8acb	-0.005692815
90	0xbd5425d8	-0.051793903
91	0x3df881db	0.12134143
92	0x3d74375d	0.05962311
93	0x3e0c35ec	0.13692445
94	0xbd79cf3d	-0.060988653
95	0x3d8f4250	0.0699507
96	0xbd26a4f1	-0.040684644
97	0xbdb86986	-0.09004502
98	0x3d95eb5e	0.07320283
99	0x3d739abc	0.059473738
100	0xbcbb1190	-0.022835523
101	0xbde4afdc	-0.11166355
102	0x3e2cb471	0.16865708
103	0xbd055ae5	-0.032557387
104	0xbd75c084	-0.05999805
105	0x3de49db1	0.1116289
106	0xbd3d828a	-0.04626707
107	0x3dab0039	0.08349652
108	0x3e0b43b6	0.13600048
109	0x3d4958b8	0.049156874
110	0x3ddb50a0	0.107087374
111	0x3dc7debb	0.09759279
112	0x3a48f0f8	0.00076653017
113	0x3e192bc9	0.14958109
114	0x3cb785db	0.022402694
115	0x3e363b53	0.17796068
116	0x3d58c0f9	0.052918408
117	0x3e01c993	0.1267455
118	0x3d7c57c6	0.061607145
119	0x3c9a594f	0.018841414
120	0x3de4f38d	0.11179266
121	0xbcd3c5f1	-0.025851222
122	0x3d45d817	0.048301782
123	0xbd5828c1	-0.05277324
124	0x3dc502aa	0.09619649
125	0xbdd9a711	-0.106275685
126	0x3dc7d3a4	0.09757164
127	0xbc861289	-0.01636626
128	0x3d054060	0.032532096
129	0x3bcf1b2f	0.006320379
130	0xbce99e70	-0.028517932
131	0xbdda2ca6	-0.10653047
132	0x3d8596c1	0.06522895
133	0x3de37583	0.11106398
134	0xbd0ef966	-0.034905814
135	0x3d0102b2	0.03149671
136	0xbd1fd539	-0.039021704
137	0x3c1c524c	0.0095411055
138	0x3d96d0fc	0.07364079
139	0x3d0217b3	0.031760883
140	0xbc4e56e7	-0.012593961
141	0x3e46d851	0.19418456
142	0x3cb215d8	0.021738932
143	0x3e05db16	0.13071856
144	0x3e05eefd	0.13079448
145	0xbd7d36bf	-0.061819788
146	0x3db89bff	0.09014129
147	0x3db79146	0.089632556
148	0xbc54bcd0	-0.0129844695
149	0x3dee0700	0.11622429
150	0xbbc0eae8	-0.005887378
151	0x3bceb8b3	0.006308639
152	0x3d0d7fef	0.034545835
153	0x3d8712be	0.06595372
154	0x3ddf8bdc	0.10915348
155	0xbd31d95f	-0.04342019
156	0x3d89f7eb	0.0673674
157	0x3d5ecb80	0.05439329
158	0xbdc591d7	-0.09646957
159	0x3dd73ddb	0.10509845
160	0x3dd4c1fa	0.103885606
161	0x3df3de80	0.11907673
162	0xbd2b006d	-0.041748453
163	0xbdcf1e17	-0.10113161
164	0x3d50c245	0.05096652
165	0x3d978794	0.07398906
166	0x3e143734	0.14474183
167	0x3c8ef9ca	0.017453093
168	0xbd9cdb76	-0.07659046
169	0x3dfb0fce	0.12258874
170	0x3e220dc2	0.1582556
171	0xbdcca3e4	-0.09992197
172	0xbd9ec4c0	-0.07752371
173	0xbde3e6b9	-0.11127991
174	0x3e148ddb	0.14507239
175	0x3d9da836	0.07698099
176	0xbce3674a	-0.027759213
177	0xbd76273e	-0.060096018
178	0xbb960607	-0.0045783552
179	0xbd94521f	-0.07242226
180	0x3ddaca55	0.10683123
181	0xbd8c45f3	-0.06849279
182	0xbdc78a80	-0.09743214
183	0xbda6f38d	-0.081519224
184	0xbd6c8eeb	-0.057753485
185	0xbc5324d3	-0.012887198
186	0x3d87319d	0.0660126
187	0x3a22b4cb	0.000620675
188	0x3d33d3cc	0.043903157
189	0x3dc05287	0.09390741
190	0xbd57db4a	-0.052699365
191	0xbb0ff975	-0.0021968756
192	0x3cefc978	0.029270872
193	0x3dfa1541	0.12211085
194	0x3e08a9d5	0.13346036
195	0xbc3e3c07	-0.011610991
196	0x3ddd7661	0.108135946
197	0x3d1c1788	0.03810838
198	0x3d07eaa7	0.033182766
199	0xbd38b84d	-0.045097638
200	0xbd7f6fd9	-0.062362526
201	0x3b373594	0.002795552
202	0xbda2ca60	-0.07948756
203	0x3d2211d3	0.03956778
204	0x3ded30e4	0.11581591
205	0xbcd22f50	-0.025657326
206	0xbbc70d07	-0.006074551
207	0x3e2536d9	0.16134204
208	0x3d573d46	0.05254867
209	0x3e0951b5	0.13410075
210	0xbcf8e098	-0.030380532
211	0xbd8f86e3	-0.070081495
212	0x3deb2a60	0.11482692
213	0xbd83bbe1	-0.064323194
214	0x3dd6676c	0.10468945
215	0xbdf2b768	-0.11851388
216	0xbda0ad66	-0.07845573
217	0xbd9c9481	-0.07645512
218	0x3c7f00a4	0.015564118
219	0x3c7648b7	0.015031985
220	0x3c9f7649	0.019465582
221	0xbdcd3728	-0.10020286
222	0xbced7d01	-0.02899027
223	0x3e27e237	0.16394888
224	0xbd3ec15f	-0.04657113
225	0x3dc67909	0.096910544
226	0x3db72b3c	0.08943793
227	0xbce9c382	-0.028535608
228	0xbd820c2f	-0.0634998
229	0x3c3840eb	0.011245946
230	0x3d931e33	0.071834944
231	0xbd38de3f	-0.045133825
232	0x3e083426	0.13301143
233	0x3dbe4ebd	0.09292362
234	0xbd32a54f	-0.04361468
235	0xbc52a34c	-0.012856316
236	0x3c78c15a	0.015182817
237	0xbd37adf8	-0.044843644
238	0x3cf07f10	0.029357463
239	0x3e448984	0.19193083
240	0x3c40bc5d	0.011763659
241	0x3d941964	0.072314054
242	0x3ba0ce0b	0.0049073747
243	0xbc914b5a	-0.017736126
244	0x3d834dd9	0.06411333
245	0xbdc6ece6	-0.097131535
246	0xbe199d87	-0.15001498
247	0xbc948a69	-0.018132405
248	0x3d1a1d37	0.037625518
249	0x3b8dc29c	0.0043261778
250	0xba8a3631	-0.0010544715
251	0x3c11ee6a	0.00890694
252	0x3d01c5ae	0.031682663
253	0xbd874a0e	-0.06605922
254	0x3def45d3	0.1168324
255	0xbd98556e	-0.074381694

lstm.weight_hh_l0 f4 [256, 64]
0	0xbd02ce61	-0.0319351
1	0x3d1f9e35	0.038969237
2	0x3d9d39a4	0.0767701
3	0xbc779611	-0.015111462
4	0xbca5edef	-0.020255057
5	0x3df9d403	0.12198641
6	0xbdf0e552	-0.117624894
7	0x3d4d1574	0.050069287
8	0xbd411080	-0.047134876
9	0x3bbd003d	0.0057678507
10	0x3db4f0b6	0.088349745
11	0x3d713a5a	0.05889354
12	0xbd8fd081	-0.07022191
13	0xbd33fd57	-0.043942776
14	0xbde96d7a	-0.11397834
15	0x3d80d3c9	0.06290395
16	0x3d898649	0.06715066
17	0x3d3b3f48	0.045714647
18	0xbe1bedd5	-0.15227444
19	0x3db05040	0.086090565
20	0xbd57b161	-0.052659396
21	0xbe2a2a2d	-0.16617651
22	0x3ddea585	0.10871414
23	0x3d108ee1	0.03529251
24	0x3d75ca69	0.060007486
25	0xbc2286ee	-0.009919865
26	0x3dc9e002	0.09857179
27	0x3dfe46d7	0.124158554
28	0x3e084275	0.13306601
29	0x3da52634	0.08063927
30	0xbe0b7c3d	-0.13621612
31	0x3d805d62	0.06267811
32	0xbda7b8db	-0.08189555
33	0xbd836991	-0.064166196
34	0xbde9f06c	-0.1142281
35	0xbe2124f4	-0.15736753
36	0x3e2d63ae	0.16932556
37	0x3e3ed98a	0.18637672
38	0xbda91774	-0.082564265
39	0x3dd6f75b	0.10496398
40	0xbcf1c3e3	-0.029512351
41	0xba367a4f	-0.00069609744
42	0xbd4c7e79	-0.0499253
43	0xbdfc2553	-0.123118065
44	0xbcb9ee1b	-0.022696545
45	0xbddac92c	-0.10682902
46	0x3d3b6f0d	0.045760203
47	0xbd1fc018	-0.039001554
48	0xbdefdd91	-0.11712182
49	0x3deb7ae3	0.11498048
50	0xbbe0ea59	-0.006863874
51	0xbdd1195d	-0.10209916
52	0x3d338d16	0.043835722
53	0x3bb03aa5	0.0053780847
54	0xbe0d9ff6	-0.13830552
55	0xbd965042	-0.07339527
56	0x3d6869a2	0.056741364
57	0x3bb396df	0.0054806317
58	0xbdf26f98	-0.11837691
59	0xbdb0ca17	-0.086322956
60	0x3dcc7a04	0.0998421
61	0x3cc76add	0.024342949
62	0x3d13b0cd	0.036057282
63	0xbd9622a8	-0.07330829
64	0xbd843310	-0.06455052
65	0x3df00f22	0.11721636
66	0xbd4ad640	-0.04952073
67	0xbcf8438d	-0.030305648
68	0xbcfbde1d	-0.03074556
69	0x3e1c7e45	0.15282543
70	0x3bb66bde	0.005567058
71	0x3ba1187a	0.004916248
72	0xbd8b7c5d	-0.0681083
73	0x3cf58ca9	0.029974299
74	0xbd868b84	-0.06569579
75	0xbdcaee6b	-0.09908756
76	0xbd9b4384	-0.07581237
77	0x3d41c9fb	0.047311764
78	0xbe245c6d	-0.16050883
79	0xbd21378b	-0.03935961
80	0x3da7a6d6	0.08186118
81	0xbbeedd1b	-0.0072895414
82	0xbe2ea7b2	-0.17056158
83	0xbda5c976	-0.08095066
84	0xbd9ec3d2	-0.077521935
85	0xbb08bebc	-0.002086564
86	0x3cb4e94a	0.022083897
87	0x3e0d11a5	0.13776262
88	0x3e04e909	0.12979521
89	0x3dd3715d	0.10324357
90	0xbd7d780d	-0.061882067
91	0x3d650b64	0.055919066
92	0xbcbedea0	-0.023299515
93	0x3dbb4aa8	0.09145099
94	0xbc767742	-0.015043082
95	0xbc008b2b	-0.00784568
96	0x3dd0a4f7	0.101877145
97	0xbd860d04	-0.06545451
98	0xbd4bb121	-0.04972947
99	0xbdb04584	-0.08607009
100	0x3d9e2dfd	0.07723615
101	0x3de10ae4	0.10988405
102	0xbd1969aa	-0.037454285
103	0xbdaf9b75	-0.08574573
104	0x3cc8d347	0.024514807
105	0xbd577d8d	-0.05260997
106	0x3c2ae4ae	0.010430498
107	0x3cd85e07	0.026412023
108	0x3d1d857f	0.03845739
109	0xbdc3666d	-0.095410205
110	0xbe2a3b7c	-0.16624254
111	0x3dd39395	0.103308834
112	0xbc406096	-0.011741778
113	0xbd06d02a	-0.032913364
114	0xbc160bb6	-0.009158066
115	0x3ca6c0d5	0.020355621
116	0xbd986686	-0.0744143
117	0x3e236298	0.1595558
118	0xbc854841	-0.016269805
119	0x3d8a5efa	0.067563966
120	0xbe0baf1b	-0.13641016
121	0xbc9d277f	-0.019183872
122	0xbdaca7c0	-0.08430433
123	0x3d5f9464	0.054584876
124	0xbc831c71	-0.016004773
125	0x3cb5fe7c	0.022216074
126	0x3da412c5	0.080113925
127	0xbb46a172	-0.0030308631
128	0x3d7108d7	0.05884632
129	0x3c738f82	0.014865758
130	0x3dcab45b	0.09897681
131	0x3d1fe3db	0.03903566
132	0x3df227eb	0.1182402
133	0xbbe48e66	-0.006974983
134	0x3dc6ab12	0.09700598
135	0x3ba14f19	0.0049227593
136	0xbcde4dc3	-0.027136689
137	0xbd5c6761	-0.053809527
138	0x3dba19b0	0.09086931
139	0x3d5c1765	0.05373325
140	0xbd7698cf	-0.060204323
141	0x3e08cc6b	0.1335923
142	0xbde131d1	-0.1099583
143	0x3e2a3332	0.16621092
144	0x3da7532e	0.08170162
145	0xbc150969	-0.009096482
146	0xbe09a2b6	-0.13440976
147	0x3d66dfd6	0.05636581
148	0x3d5f5d58	0.05453238
149	0xbdfb190d	-0.122606374
150	0xbd5c6145	-0.0538037
151	0x3dfa362d	0.122173645
152	0xbd81b0c5	-0.06332544
153	0xba4513f8	-0.0007517929
154	0x3e18c48f	0.14918731
155	0xbd726085	-0.05917408
156	0x3dddaee3	0.108243726
157	0x3ccd61bb	0.025071016
158	0xbe289a62	-0.16465142
159	0x3e053976	0.13010201
160	0x3d04c1d3	0.032411408
161	0xbc8d2651	-0.017230185
162	0x3d37f26a	0.04490892
163	0xbdef2218	-0.11676425
164	0x3e0462e6	0.12928352
165	0x3e268bc8	0.1626426
166	0x3cf69ae6	0.030103158
167	0xbdbb4b55	-0.09145228
168	0xbcb2e986	-0.021839868
169	0xbbda15fd	-0.0066554532
170	0x3d7ddc4a	0.061977662
171	0x3c549c16	0.012976667
172	0xbcfccd40	-0.03085959
173	0xbe29b617	-0.16573368
174	0xbd3a0b59	-0.04542098
175	0xbdc2d402	-0.095130935
176	0xbd2cda54	-0.0422004
177	0x3dbbf40b	0.09177407
178	0x3da6cf89	0.08145053
179	0x3d092665	0.03348388
180	0xbda606da	-0.081067756
181	0x3da07fb9	0.07836861
182	0x3d982c30	0.07430303
183	0x3def3b55	0.116812386
184	0xbd79dce1	-0.061001662
185	0x3e23067e	0.15920445
186	0xbd90af35	-0.07064668
187	0x3d4969f2	0.049173303
188	0x3dc606bb	0.096692525
189	0xbddcd934	-0.10783616
190	0x3adf37d2	0.0017030186
191	0x3d5a5d61	0.05331171
192	0x3da394fa	0.079873994
193	0xbc691607	-0.014226443
194	0x3db90184	0.09033492
195	0xbdf27f73	-0.11840715
196	0x3de6100a	0.11233528
197	0x3e00f456	0.12593207
198	0xbdc3726e	-0.0954331
199	0x3dca55c7	0.09879642
200	0xbd408cec	-0.047009394
201	0x3da0e3ad	0.07855926
202	0x3d8a10d3	0.0674149
203	0x3e1a2153	0.15051775
204	0xbd2072af	-0.03917187
205	0x3cdfa081	0.027298214
206	0x3d8e177f	0.06938075
207	0x3dda5704	0.10661128
208	0xbd357aa7	-0.044306424
209	0xbc8b2960	-0.016987503
210	0xbdbb7717	-0.09153574
211	0x3dc37ab9	0.09544892
212	0x3dd07a46	0.10179572
213	0x3db535c9	0.08848149
214	0x3b97b3ed	0.004629603
215	0xbd2f3817	-0.0427781
216	0x3de67671	0.1125306
217	0xbd455c7b	-0.0481839
218	0xbe199330	-0.14997554
219	0x3c0c2a0a	0.008554945
220	0xbce6779b	-0.028133204
221	0x3d8a9bb8	0.06767982
222	0x3d51218c	0.051057383
223	0xbd9d2256	-0.07672565
224	0xbdaf2479	-0.085518785
225	0x3d07374b	0.033011716
226	0x3b6392d6	0.0034724972
227	0x3da9a324	0.0828307
228	0xbd900050	-0.070313096
229	0x3d6853c8	0.056720525
230	0xbd8178f4	-0.06321898
231	0xbc5d84de	-0.013520448
232	0x3dce14b6	0.10062544
233	0xbdef73aa	-0.11691983
234	0x3e26dfbb	0.16296284
235	0x3d368231	0.044557754
236	0x3cb5ad18	0.022177264
237	0x3d9645b6	0.07337515
238	0x3d5da427	0.054111626
239	0xbcaf1ee8	-0.021377042
240	0xbcf52957	-0.029926939
241	0x3d0008d2	0.03125841
242	0xbd4585d5	-0.048223335
243	0xbdcfb865	-0.10142592
244	0x3d48309b	0.04887448
245	0x3db6ddcd	0.08929024
246	0xbd18f455	-0.03734239
247	0x3ce38316	0.027772468
248	0xbdf31f7d	-0.1187124
249	0x3ccdd017	0.025123639
250	0x3da462e9	0.08026678
251	0x3e05ab03	0.13053517
252	0xbdaa0dad	-0.0830339
253	0x3da781d2	0.08179058
254	0xbda4fb54	-0.080557495
255	0x3d8f650f	0.07001697

lstm.bias_ih_l0 f4 [256]
0	0x3a240ea7	0.0006258287
1	0xbd923441	-0.07138873
2	0x3d8675ee	0.06565462
3	0xbdcce6b1	-0.100049384
4	0x3ddf8698	0.109143436
5	0x3e1437c2	0.14474395
6	0x3c42da09	0.011892804
7	0xbc4978d3	-0.012296873
8	0x3de3a056	0.11114566
9	0x3c5b37aa	0.013379971
10	0xbde3aa29	-0.1111644
11	0xbd08a3c2	-0.033359297
12	0x3dee9463	0.11649396
13	0xbc978cf3	-0.018499827
14	0xbd6316ff	-0.055441853
15	0x3e1ebb33	0.15501098
16	0x3e0a8db4	0.13530618
17	0x3c9c7c1e	0.019102152
18	0x3cf3886f	0.029728143
19	0x3d9ebbc0	0.07750654
20	0xba0a4b17	-0.00052754715
21	0xbb8f86ee	-0.0043800985
22	0xbd19dffa	-0.037567116
23	0x3d820674	0.06348887
24	0xbdcb4fb6	-0.09927313
25	0xbd5bc479	-0.053654168
26	0xbc653455	-0.013989528
27	0x3dcdb2c1	0.1004386
28	0x3da9467c	0.08265397
29	0x3dd69093	0.10476794
30	0xbbfed2d0	-0.0077765957
31	0x3d0ca6dd	0.03433882
32	0xbd5f942a	-0.05458466
33	0xbcced979	-0.025250183
34	0xbcda8d9b	-0.02667885
35	0x3cf34092	0.029693875
36	0x3e018b77	0.12650858
37	0x3e1844cf	0.14869998
38	0xbd9ab366	-0.07553749
39	0xbd07370d	-0.033011485
40	0x3e003ff2	0.12524393
41	0x3da9e862	0.08296277
42	0x3db9afaa	0.090667084
43	0xbd86eb5d	-0.06587861
44	0x3dd4e3fd	0.10395048
45	0xbc968b84	-0.018377073
46	0x3d016bb2	0.031596847
47	0x3d359658	0.044332832
48	0x3dd12006	0.10211186
49	0x3e0c35f2	0.13692454
50	0x3c304489	0.010758528
51	0x3dbcbf52	0.09216179
52	0x3d621a68	0.055200964
53	0x3de3cf9b	0.11123582
54	0xbd519bf8	-0.051174134
55	0x3d866f88	0.06564242
56	0x3cb25d2e	0.021772947
57	0xbb9e4483	-0.0048299446
58	0x3daa96c4	0.083295375
59	0x3dc6d0df	0.09707808
60	0xbd408073	-0.0469975
61	0xbcdd2ad2	-0.026997957
62	0x3d055b88	0.032557994
63	0x3d06f683	0.032949936
64	0x3e3012bd	0.17194648
65	0xbd965776	-0.073409006
66	0x3d53b25b	0.051683765
67	0x3dbb7c96	0.09154622
68	0x3d780004	0.06054689
69	0x3daec850	0.085343
70	0xbd1bea3c	-0.03806518
71	0xbcc05a71	-0.023480626
72	0x3dd03b1f	0.101675265
73	0x3d47d70a	0.04878906
74	0xbd22bc01	-0.039730076
75	0xbd418244	-0.04724337
76	0x3de1b70a	0.1102124
77	0x3d3b09cb	0.045663636
78	0x3d51b887	0.05120137
79	0x3e17264b	0.14760701
80	0xbd50d843	-0.050987493
81	0xbde3c065	-0.11120681
82	0xbc42b044	-0.011882845
83	0xbd81a892	-0.0633098
84	0x3e2c4c40	0.16825962
85	0x3e21640f	0.15760826
86	0x3e033489	0.1281301
87	0x3d57afa7	0.05265775
88	0xbb74bff2	-0.0037345854
89	0xbd846dee	-0.0646628
90	0x3e086520	0.13319826
91	0xbdb0bf08	-0.08630186
92	0xbb46c613	-0.0030330464
93	0x3d8a631e	0.06757186
94	0x3c7b0637	0.015321306
95	0x3d5b58ca	0.053551473
96	0xbdd589b1	-0.10426653
97	0x3dfbaa80	0.1228838
98	0x3da70ac2	0.08156349
99	0x3ccbdb29	0.024884777
100	0x3c3d88a7	0.011568225
101	0x3e186f67	0.14886247
102	0xbd97ced8	-0.07412499
103	0xbd8f0e9a	-0.06985207
104	0x3ccc98a5	0.02497513
105	0xbccb66ac	-0.024829231
106	0x3d20b218	0.039232343
107	0xbd978516	-0.07398431
108	0x3bd2132b	0.0064109764
109	0x3d925faf	0.071471564
110	0x3e2f1e33	0.17101364
111	0x3ddceba2	0.10787131
112	0xbcf164e3	-0.029467052
113	0xbda7eb9c	-0.08199236
114	0xbe01125c	-0.1260466
115	0x3dcd642f	0.10028874
116	0xbd0c8986	-0.03431084
117	0x3df35126	0.11880712
118	0x3d5b66d2	0.053564854
119	0x3cca2321	0.024674954
120	0x3d51e344	0.051242128
121	0x3e04ed03	0.12981038
122	0x3dfb8ed6	0.12283103
123	0x3e106b1c	0.14103359
124	0x3d9f643c	0.0778279
125	0x3b8ef18b	0.0043622903
126	0xbd7218ba	-0.059105612
127	0x3ddd8caf	0.10817849
128	0xbd905e45	-0.070492305
129	0x3c86059e	0.0163601
130	0xbdb06a7c	-0.0861406
131	0x3c6466dc	0.013940539
132	0x3e0e1466	0.13874969
133	0x3d9ac34f	0.075567834
134	0x3b5cb7fb	0.0033678997
135	0x3de0b9f8	0.10972971
136	0xbe01961b	-0.12654917
137	0xbde13647	-0.10996681
138	0xb9668410	-0.00021983706
139	0xbde5bc6b	-0.112175785
140	0xbe2809fd	-0.1641006
141	0x3d423021	0.04740918
142	0xbe075ed7	-0.13219772
143	0x3dbf0f9d	0.0932915
144	0x3d47d993	0.04879148
145	0x3e0143fa	0.12623587
146	0xbdedb740	-0.11607218
147	0xbe0ac4aa	-0.13551584
148	0xbca6f2ef	-0.020379512
149	0xbe248c58	-0.16069162
150	0x3e101c14	0.14073211
151	0xbc10945a	-0.008824432
152	0xbd6660ce	-0.056244664
153	0x3cadce8d	0.021216655
154	0x3c364584	0.011124972
155	0xbdadc103	-0.0848408
156	0x3e0f39c3	0.13986878
157	0x3d7af247	0.06126621
158	0xbe00c3ce	-0.12574694
159	0x3e1ea60f	0.15493034
160	0x3cc74d8a	0.024328966
161	0xbe0463fb	-0.12928765
162	0x3d39ff01	0.045409206
163	0xbe0c6199	-0.13709106
164	0x3c9ebfcb	0.019378563
165	0xbd294285	-0.041323204
166	0xbdd101d0	-0.10205424
167	0xbd122d0c	-0.03568749
168	0xbdf4273e	-0.11921547
169	0x3cd91f5a	0.026504207
170	0xbdafa20a	-0.085758284
171	0xbd69ace1	-0.057049636
172	0x3dc28125	0.094972886
173	0xbe17d721	-0.14828159
174	0x3cafd81c	0.021465354
175	0x3bf01be8	0.0073275454
176	0xbdcc4077	-0.09973233
177	0x3d74ad1e	0.05973541
178	0xbe0221bb	-0.1270818
179	0xbd41698a	-0.04721979
180	0xbda2a0b1	-0.07940806
181	0x3e27002b	0.16308658
182	0x3da0a791	0.07844461
183	0x3dfa4c42	0.12221576
184	0xbd1968f9	-0.037453625
185	0x3e1c37da	0.1525568
186	0xbe185940	-0.14877796
187	0xbc801b21	-0.015637936
188	0x3d51e307	0.0512419
189	0xbdc7afdd	-0.0975034
190	0xbd5d262a	-0.053991474
191	0x3d1676ef	0.036734518
192	0xbcc5466e	-0.024081435
193	0xbd52f9a5	-0.05150761
194	0xbd184d5f	-0.03718316
195	0x3c884f31	0.016639324
196	0xbd7525b5	-0.059850413
197	0x3c07e4b5	0.008294274
198	0x3e13d95c	0.14438385
199	0x3dffb489	0.12485606
200	0x3d8b2f96	0.06796186
201	0x3e2b4ca9	0.16728462
202	0x3ddf8fe8	0.1091612
203	0x3e17152b	0.14754169
204	0x3e47e21c	0.19519848
205	0x3e0da8e9	0.13833965
206	0xbca7e4db	-0.020494869
207	0xbc4a8c84	-0.012362603
208	0x3dc56e85	0.096402206
209	0x3dc5e461	0.096627004
210	0x3e0123c2	0.12611297
211	0xbbbdfe31	-0.0057981242
212	0x3d248d69	0.04017392
213	0x3d9ef314	0.07761207
214	0x3e3de609	0.18544783
215	0x3dc28596	0.09498136
216	0xbd171069	-0.036880884
217	0x3d4ffe29	0.050779495
218	0x3d64ff82	0.055907734
219	0x3dcc5395	0.099768795
220	0x3d6554db	0.055989128
221	0x3e24b1f5	0.1608351
222	0x3e410055	0.18847783
223	0xbb83c47f	-0.004021227
224	0xbda5cbd8	-0.08095521
225	0x3df007d8	0.11720246
226	0x3a96f0b4	0.0011515827
227	0xbd5fade9	-0.054609213
228	0x3d258712	0.040412016
229	0xbb193e71	-0.0023383165
230	0xbc3ed690	-0.011647835
231	0xbdbcd375	-0.0922002
232	0x3e3ebbf0	0.1862638
233	0x3e008c85	0.12553604
234	0x3dca882a	0.098892525
235	0x3d9bb34f	0.0760256
236	0xbd57720e	-0.052599005
237	0xbd442b53	-0.04789288
238	0x3d3c885b	0.046028476
239	0x3d7e3773	0.0620646
240	0xbd064d77	-0.03278872
241	0x3e21854f	0.1577351
242	0x3d677491	0.05650765
243	0x3e0c6e09	0.1371385
244	0x3e1f8d0e	0.15581152
245	0x3db1a29f	0.08673596
246	0xbd2db0d6	-0.042404972
247	0xbd89f906	-0.067369506
248	0xbd634e00	-0.05549431
249	0x3df2369a	0.11826821
250	0x3b7da565	0.003870332
251	0x3e4a254e	0.19740793
252	0xbbd11618	-0.0063808076
253	0x3ccab337	0.02474366
254	0xbbe3e815	-0.0069551566
255	0x3d6ad43c	0.05733131

lstm.bias_hh_l0 f4 [256]
0	0x3e15980f	0.14608787
1	0xbb9f5481	-0.0048623686
2	0x3df2e137	0.118593626
3	0xbc47b6f8	-0.012189619
4	0x3d8c021e	0.06836341
5	0xbcf48cb1	-0.029852243
6	0xbd8e679a	-0.06953354
7	0xbd7d8be1	-0.061900977
8	0xbdc8965e	-0.09794305
9	0x3e126e26	0.14299831
10	0xbd80fe0b	-0.06298455
11	0xbcfc07a7	-0.030765368
12	0x3e1d80ce	0.15381166
13	0x3b8cd13c	0.0042974036
14	0xbc42339f	-0.011853128
15	0x3c324b47	0.010882205
16	0xbcd53fb6	-0.026031356
17	0x3d8f8dc1	0.07009459
18	0xbcf5cf68	-0.030006126
19	0x3df4d77c	0.11955163
20	0x3de8b827	0.11363249
21	0xbc314138	-0.010818772
22	0xbc35e375	-0.011101593
23	0x3ae1ba1b	0.0017221601
24	0x3e02a2a9	0.12757362
25	0xbd61e4e7	-0.05514994
26	0x3d9aa88c	0.07551679
27	0x3d8c7eb0	0.06860101
28	0x3e156fea	0.14593473
29	0xbd1c254f	-0.038121518
30	0x3dbe57ca	0.09294088
31	0x3db6a6f9	0.08918566
32	0x3e001f38	0.12511909
33	0x3d9dcb28	0.077047646
34	0x3d81afbc	0.06332347
35	0x3d28bba1	0.041194562
36	0xbda762fa	-0.08173175
37	0x3e2309f4	0.15921766
38	0x3ce96944	0.028492577
39	0xbd437f33	-0.04772873
40	0x3db9a0e8	0.090638936
41	0x3d87f312	0.06638159
42	0x3df2f3f5	0.11862937
43	0xbd6d2905	-0.057900447
44	0xbd52b0c9	-0.051438127
45	0x3d6aa62b	0.057287376
46	0x3d8c9c0b	0.068657
47	0x3cc0a688	0.023516908
48	0xbc5c66a8	-0.0134522095
49	0xbbdce66f	-0.006741337
50	0x3d949627	0.07255202
51	0x3da23e24	0.07922009
52	0xbd2dea32	-0.042459674
53	0xbd83b553	-0.06431069
54	0xbc7c58ea	-0.015402058
55	0x3cdd781a	0.027034808
56	0x3d380342	0.044924982
57	0xbd0cac23	-0.03434385
58	0x3c7f8ab6	0.015597036
59	0x3d69667b	0.0569825
60	0x3daf62ca	0.085637644
61	0x3d98778b	0.07444676
62	0xbdd95dc8	-0.106135905
63	0xbd1e9b16	-0.03872212
64	0x3e1fe427	0.15614377
65	0xbdc289f8	-0.09498972
66	0x3da90e78	0.08254713
67	0x3da6c380	0.081427574
68	0x3ddb6b16	0.107137844
69	0x3dd6b49e	0.10483669
70	0xbd8d89b0	-0.069110274
71	0xbd88e7c4	-0.06684831
72	0x3c9360aa	0.017990429
73	0x3d65c3cd	0.056094933
74	0xbc276f88	-0.010219462
75	0xbd48224f	-0.048860844
76	0x3e0d42f9	0.1379508
77	0x3df041b2	0.117312804
78	0xbc986386	-0.018602144
79	0xbba49d33	-0.0050236224
80	0xbdc339ec	-0.09532532
81	0xbde0a413	-0.10968795
82	0x3e119195	0.14215691
83	0x3d298aee	0.04139226
84	0xbcbf2201	-0.023331644
85	0x3e1d34f2	0.15352228
86	0x3ddf23f1	0.10895527
87	0x3da08517	0.07837885
88	0x3d079bb5	0.03310748
89	0x3b966c05	0.0045905137
90	0x3e12f7d9	0.14352359
91	0xbd014eea	-0.0315694
92	0x3de48e9c	0.11160013
93	0xbd51fda8	-0.051267296
94	0xbd8444f4	-0.06458464
95	0x3e102a34	0.14078599
96	0x3d067a37	0.032831397
97	0xbc7fbb4b	-0.015608619
98	0x3cef27c8	0.029193774
99	0x3e26b9b4	0.16281778
100	0x3dc2249e	0.094796404
101	0x3cf94f8e	0.030433442
102	0x3dbfc935	0.09364549
103	0xbdc19fdc	-0.09454319
104	0x3d44022e	0.04785364
105	0x3da67181	0.08127118
106	0x3e3ffd4d	0.1874897
107	0x3cc02888	0.023456827
108	0xbbd40922	-0.0064708153
109	0x3d841811	0.06449903
110	0x3d99d2be	0.07510899
111	0xbdbc344e	-0.09189664
112	0x3bae5009	0.0053195995
113	0xbcf92b1a	-0.03041606
114	0xbc5759c6	-0.013143962
115	0xbd1253d2	-0.03572447
116	0x3cfa4fc6	0.030555617
117	0x3d813b1b	0.063101016
118	0x3ce07745	0.027400622
119	0x3c90b930	0.01766643
120	0x3dcfe326	0.10150747
121	0xbc1a4c44	-0.009417597
122	0x3db48d29	0.08815987
123	0xbce5b2c1	-0.028039338
124	0xbd0f8191	-0.035035674
125	0x3e0feb4b	0.14054601
126	0xbdb8de8a	-0.09026821
127	0xbcb04687	-0.021518005
128	0xbcd6fd20	-0.026243746
129	0xbc455852	-0.012044983
130	0xbd8fe79b	-0.07026597
131	0xbdc8ff9a	-0.09814377
132	0x3e0f1708	0.1397363
133	0x3d8313c9	0.06400258
134	0xbc86d923	-0.01646096
135	0xbd0aacb0	-0.033856094
136	0x3dc73618	0.097271144
137	0xbe2a7c3f	-0.16648959
138	0xbd4eaf2b	-0.050460022
139	0xbc9a5b00	-0.01884222
140	0xbd5eb31f	-0.054370042
141	0xbda95c3c	-0.082695454
142	0xbe0335af	-0.12813447
143	0x3e103574	0.14082891
144	0xba8bc628	-0.0010663914
145	0x3c886e19	0.016654061
146	0x3c2ee07c	0.010673638
147	0xbd7bff5b	-0.061522823
148	0xbd0035a7	-0.031301167
149	0xbe246fe4	-0.16058308
150	0x3dca3d50	0.09874976
151	0x3c61db61	0.013785214
152	0x3e0f85f7	0.14015947
153	0x3e2ca0bb	0.16858189
154	0x3e32647b	0.17421143
155	0x3de691ff	0.11258315
156	0x3d38b2d5	0.045092423
157	0x3d310b2e	0.043223552
158	0xbcc88a2f	-0.024479954
159	0x3de52d6e	0.11190306
160	0xbb4e0aec	-0.0031439615
161	0xbcdf4689	-0.027255313
162	0xbd856fac	-0.0651544
163	0xbd98d67e	-0.07462786
164	0x3e192afb	0.14957802
165	0x3db101fb	0.08642956
166	0xbd0950a5	-0.033524174
167	0xbc946f1b	-0.018119385
168	0xbc5f5a09	-0.013632306
169	0x3d15870e	0.03650575
170	0xbdadb148	-0.08481079
171	0xbddc033d	-0.10742805
172	0x3d6a0a91	0.057138983
173	0xbd25c775	-0.04047342
174	0xbe3aa590	-0.1822722
175	0x3bb88cab	0.0056320033
176	0xbd93eff9	-0.072235055
177	0x3db5ddca	0.088801935
178	0x3d28c3ee	0.041202478
179	0xbe312e8e	-0.17302915
180	0xbe0ba4e2	-0.13637117
181	0xbd95c2e2	-0.073125616
182	0xbdb49946	-0.08818297
183	0x3d7de60c	0.061986968
184	0xbdf202f3	-0.11816969
185	0x3e08c472	0.13356188
186	0x3cb40bfe	0.021978375
187	0xbde3f208	-0.11130148
188	0x3d8672b5	0.065648474
189	0x3c065632	0.0081992615
190	0xbd78845e	-0.06067311
191	0x3d5513b6	0.05202075
192	0x3dcb3928	0.09923011
193	0x3cb26a72	0.021779273
194	0x3cb4e90a	0.022083778
195	0x3de6df8a	0.112731054
196	0xbd16516d	-0.036698747
197	0x3dbb8935	0.091570295
198	0xbca59186	-0.020210993
199	0x3deba8f7	0.11506837
200	0x3b978896	0.0046244366
201	0xbcb77234	-0.022393323
202	0x3d5921b1	0.053010646
203	0xbd304aa5	-0.043039937
204	0x3e323eb0	0.17406726
205	0xbd9e64fb	-0.07734104
206	0x3db37917	0.087633304
207	0x3e311f14	0.17297012
208	0xbcc172d3	-0.023614323
209	0xbd873593	-0.06602015
210	0x3e46b2be	0.19404122
211	0x3da6f78e	0.08152686
212	0x3e4fa009	0.20275892
213	0x3dbdec98	0.09273642
214	0xbd5c0076	-0.053711377
215	0xbcc6dd47	-0.024275435
216	0xbc711ad2	-0.014715867
217	0x3ce98ded	0.028510058
218	0x3cfb7df4	0.030699708
219	0x3db2b629	0.087261505
220	0x3e15925f	0.14606617
221	0x3e21d7a9	0.15804924
222	0xbd347102	-0.044053085
223	0x3e1dc058	0.15405405
224	0x3dc838a6	0.0977643
225	0xbcfc4046	-0.030792367
226	0xbdd319a6	-0.103076264
227	0x3e03fdcf	0.12889789
228	0x3da22a70	0.079182506
229	0xbd864c29	-0.06557495
230	0x3df9fe8f	0.12206756
231	0x3dca242d	0.09870181
232	0x3b1d173d	0.002397015
233	0xbd7afff6	-0.06127926
234	0x3c82b36a	0.015954692
235	0x3d150660	0.036383033
236	0x3ddbd2a6	0.107335374
237	0xbd525f48	-0.0513604
238	0x3d5382c1	0.05163837
239	0xbd939ee4	-0.0720804
240	0xbdb973d2	-0.09055294
241	0xbcab4cc2	-0.020910624
242	0xbde21535	-0.11039201
243	0x3d9ab848	0.0755468
244	0x3dfc0e82	0.12307455
245	0x3de84d88	0.11342913
246	0x3d94fdfa	0.07275005
247	0x3c4a075e	0.012330858
248	0x3d9bde00	0.076107025
249	0xbd385a42	-0.04500795
250	0x3dfad052	0.12246765
251	0x3dde981d	0.10868857
252	0x3d2d1e3e	0.04226517
253	0x3c8adf1e	0.016952094
254	0x3e0a3ef8	0.13500583
255	0x3dd1b6ae	0.102399215

fc.weight f4 [9, 64]
0	0xbcc86423	-0.024461811
1	0x3c23abf5	0.009989728
2	0xbdc3321f	-0.09531044
3	0x3da7880d	0.081802465
4	0x3e41f7d4	0.18942195
5	0x3d0d6a45	0.034525175
6	0xbe009229	-0.12555756
7	0x3e1a6b07	0.1507989
8	0xbd21e709	-0.039526973
9	0xbdcab2f8	-0.09897417
10	0x3cae896a	0.021305759
11	0xbdb52d8f	-0.0884658
12	0xbdf12bf0	-0.117759585
13	0x379288ec	1.7468315e-05
14	0xbd3b23c1	-0.045688394
15	0x3e028099	0.12744369
16	0x3e202039	0.15637292
17	0x3ddc824a	0.10767038
18	0xbe7023d1	-0.23451163
19	0x3babea04	0.0052464027
20	0xbdf607b8	-0.12013191
21	0xbe0a5750	-0.1350987
22	0x3e31d060	0.17364645
23	0x3b73be50	0.0037192293
24	0x3d0de09c	0.034638032
25	0x3e5895ad	0.21150847
26	0x3e5357ce	0.20638964
27	0x3d711639	0.058859084
28	0xbcad4c66	-0.021154594
29	0x3db875b1	0.09006823
30	0xbe0c9e8e	-0.13732359
31	0x3e69e105	0.22839744
32	0x3d585c46	0.052822374
33	0xbe08f8f6	-0.13376221
34	0x3c55902e	0.013034863
35	0xbc799f5c	-0.015235748
36	0x3e50156e	0.20320675
37	0x3e365873	0.17807178
38	0x3c9828af	0.018574087
39	0x3dbf6340	0.09345102
40	0xbe87ac4d	-0.26498643
41	0x3e3afc15	0.18260224
42	0xbd820afe	-0.06349753
43	0xbd3d6529	-0.046239052
44	0xbd1b5e07	-0.03793147
45	0x3b9b4e19	0.0047395346
46	0xbe535114	-0.20636398
47	0x3dee8e3e	0.11648224
48	0x3d77efca	0.060531415
49	0xbba1d831	-0.004939102
50	0x3d87a88f	0.06623947
51	0xbd2fe9d1	-0.042947594
52	0xbe5ae762	-0.21377328
53	0x3dcc2873	0.099686526
54	0xbe18a7b4	-0.14907724
55	0x3e26d4a7	0.16292058
56	0x3d100b66	0.03516712
57	0x3c431514	0.011906881
58	0x3ad66c37	0.0016359155
59	0xbe3055a8	-0.17220175
60	0x3e22bf77	0.1589335
61	0xbe2d5ecb	-0.16930692
62	0x3c562788	0.013070948
63	0xbca2c0d3	-0.019867336
64	0x3b440795	0.0029911746
65	0x3d54a292	0.05191285
66	0xbe16582a	-0.1468207
67	0xbd7c5fb7	-0.06161472
68	0x3e459ad6	0.19297346
69	0x3e276600	0.16347504
70	0xbc834419	-0.016023682
71	0x3e297394	0.16547996
72	0xbc7c1d86	-0.015387898
73	0xbe06efcf	-0.13177417
74	0xbcae24f4	-0.021257855
75	0xbd823e6b	-0.063595615
76	0xbe2968a1	-0.16543819
77	0x3e39aa45	0.18131359
78	0xbe3e118c	-0.18561381
79	0x3e75c685	0.2400151
80	0x3e03c142	0.12866691
81	0xbcbbaa15	-0.02290825
82	0xbcf0ca50	-0.029393345
83	0xbd655ca4	-0.055996552
84	0xbd819704	-0.06327632
85	0xbcb92344	-0.022599824
86	0x3e043a16	0.12912783
87	0x3e750dc9	0.2393104
88	0x3d76b040	0.06022668
89	0x3cbd7fc0	0.023132205
90	0x3e21225a	0.1573576
91	0x3cd64c1b	0.026159337
92	0x3cdd26f4	0.026996113
93	0x3d11c629	0.03558937
94	0xbccdcd29	-0.025122242
95	0x3dda4ed8	0.106595695
96	0x3d8af0d3	0.06784215
97	0xbe1282d7	-0.14307724
98	0xbdbdf03e	-0.09274338
99	0xbda5d35d	-0.08096955
100	0x3d665af7	0.056239095
101	0x3dabab6f	0.08382308
102	0xbb88db5e	-0.004176541
103	0x3e0d4abc	0.1379804
104	0xbde55770	-0.11198318
105	0x3e0e1cbd	0.1387815
106	0xbe62f301	-0.22163011
107	0xbca4b4f8	-0.020105824
108	0x3df51a7b	0.119679414
109	0xbe1faa3b	-0.15592282
110	0xbe25cea2	-0.16192105
111	0xbc2df1fb	-0.010616775
112	0xbd84e9cb	-0.06489905
113	0x3da9386c	0.08262715
114	0xbc296081	-0.01033795
115	0xbe2aac11	-0.166672
116	0xbe49accd	-0.19694825
117	0xbc5ebec7	-0.01359529
118	0xbd9d5e0a	-0.07683952
119	0x3c083b9d	0.008314994
120	0x3c9154dd	0.017740661
121	0x3e0edcba	0.13951388
122	0xbe53ade2	-0.206718
123	0xbd948352	-0.0725161
124	0x3dd28b7b	0.1028051
125	0xbd63f703	-0.05565549
126	0xbe382cfa	-0.17985907
127	0xbc6e38ad	-0.01453988
128	0xbd9f1d29	-0.07769234
129	0x3dd74cca	0.10512693
130	0xbcc9b0ee	-0.0246205
131	0xbdc6e5e6	-0.097118184
132	0xbd0c2f6d	-0.034224916
133	0x3b2f3bcb	0.002673852
134	0xbd745bec	-0.059657976
135	0x3daba8eb	0.08381828
136	0xbe188efc	-0.14898294
137	0xbe6326d6	-0.22182783
138	0x3de179e2	0.110095754
139	0xbcb554ec	-0.02213522
140	0xbe70dabc	-0.2352094
141	0x3db259ec	0.087085575
142	0xbdff0f7f	-0.124541275
143	0x3e3c3f17	0.18383442
144	0x3db0478a	0.08607395
145	0x3de59114	0.11209312
146	0x3b28b138	0.0025740396
147	0xbd285e57	-0.041105594
148	0xbd1aa108	-0.037751228
149	0xbe222bcd	-0.15837021
150	0x3e349dfd	0.17638393
151	0x3da3a7e2	0.079910055
152	0x3dec0dc2	0.115260616
153	0x3d8d078b	0.06886204
154	0x3ccdb72e	0.025111761
155	0x3dc2ca64	0.09511259
156	0x3cb4c4d2	0.022066507
157	0x3db7628a	0.08954342
158	0xbda87396	-0.08225171
159	0x3db5405e	0.08850168
160	0x3dafcb94	0.08583751
161	0x3cea7d47	0.02862419
162	0x3c889127	0.016670777
163	0xbe0036d7	-0.1252092
164	0x3e3a99f5	0.18222792
165	0x3e281688	0.16414845
166	0x3d1d9a27	0.03847709
167	0x3ccc48d4	0.02493707
168	0xbe167747	-0.14693938
169	0x3e046fe6	0.12933311
170	0xbe16a323	-0.14710669
171	0xbe57a224	-0.21057945
172	0x3dc32e45	0.095303096
173	0xbe5aeb6d	-0.2137887
174	0xbda500ad	-0.080567695
175	0x3e25cd4a	0.16191593
176	0x3d9c4ae2	0.0763147
177	0x3dde7ada	0.10863276
178	0x3d09e30d	0.033663798
179	0xbd954b7e	-0.072897896
180	0xbe23f9d3	-0.16013269
181	0x3dfcb718	0.1233961
182	0xbe13c90a	-0.14432159
183	0x3df15bde	0.117851004
184	0xbcecda20	-0.028912604
185	0x3e6806b8	0.22658813
186	0xbdefdb75	-0.1171178
187	0xbe05a499	-0.1305107
188	0x3c8a79ad	0.016903723
189	0xbe1807fb	-0.14846794
190	0xbe1a52e5	-0.15070684
191	0x3dfb6c62	0.12276532
192	0xbe443e26	-0.19164333
193	0x3da32edb	0.07967921
194	0xbc230651	-0.009950236
195	0x3dac963b	0.08427092
196	0x3dc8a91c	0.0979788
197	0xbc9cb626	-0.019129824
198	0xbdfd32f1	-0.12363232
199	0xbc023790	-0.007947817
200	0xbe13020c	-0.1435625
201	0xbd2a3c6e	-0.041561536
202	0x3ded48e1	0.11586166
203	0xbc2ae30c	-0.010430109
204	0xbe3d20f1	-0.18469597
205	0x3e23bdd6	0.15990385
206	0xbe24f6d0	-0.16109776
207	0x3df04c95	0.11733357
208	0x3db49178	0.088168085
209	0x3da0bfb6	0.07849066
210	0xbe03c268	-0.12867129
211	0xbdca4f19	-0.09878368
212	0xbdae8df4	-0.08523169
213	0xbe4f69fa	-0.2025527
214	0x3d89fcd1	0.06737674
215	0x3e0b5792	0.13607624
216	0x3dac695d	0.08418534
217	0x3d9736cb	0.07383498
218	0x3e86aafa	0.2630232
219	0x3c13287d	0.008981821
220	0x3e064087	0.13110553
221	0x3db3186b	0.08744892
222	0xbe3a8a1c	-0.18216747
223	0x3e212773	0.15737705
224	0xbcdf6ba7	-0.027273012
225	0xbdfa1dbe	-0.12212704
226	0xbd60b224	-0.05485739
227	0xbe3f0ee4	-0.18658024
228	0xbcdbc339	-0.026826488
229	0x3e25e42a	0.16200319
230	0x3d92643a	0.07148023
231	0x3daed924	0.0853751
232	0xbcdd8254	-0.027039684
233	0x3e1b3abb	0.15159123
234	0xbdaa3bf7	-0.08312219
235	0xbe1c9aaf	-0.15293382
236	0xba120271	-0.0005569822
237	0xbe5a1e5c	-0.21300644
238	0xbd5756f6	-0.052573167
239	0xbbfb1c79	-0.0076633063
240	0xbd7c00a6	-0.061524056
241	0x3e189132	0.14899138
242	0xbc2d0867	-0.010561085
243	0xbe3aa27e	-0.18226048
244	0x3c2a9496	0.010411402
245	0x3ddf8da4	0.10915688
246	0xbdccfc00	-0.10009003
247	0x3e1c2621	0.1524892
248	0xbe077ff4	-0.13232404
249	0x3e5e729f	0.21723412
250	0xbe4cb07b	-0.19989197
251	0xbe010b07	-0.12601863
252	0x3d0f6d9f	0.035016652
253	0xbe233661	-0.15938713
254	0xbd5f35ad	-0.05449455
255	0x3d7f15bd	0.06227659

fc.bias f4 [9]
0	0x3ccbe4db	0.0248894
1	0x3df26910	0.11836445
2	0xbd395cb2	-0.045254417
3	0x3d60b40f	0.054859217
4	0xbd56bfbb	-0.052428942
5	0x3cab4153	0.020905172
6	0x3d8c2839	0.06843609
7	0x3db5d077	0.08877652
8	0x3d78b36b	0.06071798

exp_avg f4 [256, 9]
0	0xb609fd84	-2.0562156e-06
1	0xb4fa39b6	-4.660812e-07
2	0xb5400668	-7.1534896e-07
3	0xb4af7a5c	-3.2685318e-07
4	0xb4645e1c	-2.1268391e-07
5	0xb4a21baf	-3.0194994e-07
6	0xb5cef814	-1.5420396e-06
7	0xb4f5bc6d	-4.5771904e-07
8	0xb64c20d1	-3.041747e-06
9	0xb686d30d	-4.0180807e-06
10	0xb437be97	-1.711254e-07
11	0xb5859147	-9.951553e-07
12	0xb5f26c86	-1.806199e-06
13	0xb6248078	-2.4512683e-06
14	0xb54a3c04	-7.53382e-07
15	0xb67f2da8	-3.8024536e-06
16	0xb67ff6d7	-3.814164e-06
17	0xb6d98af4	-6.4832802e-06
18	0xb688b7c2	-4.074508e-06
19	0xb4b3d5c9	-3.3496897e-07
20	0xb59d27c0	-1.170898e-06
21	0xb5dcde8f	-1.645605e-06
22	0xb6093229	-2.0443788e-06
23	0xb4c774e7	-3.7151696e-07
24	0xb6670d1e	-3.4429318e-06
25	0xb680669d	-3.826643e-06
26	0xb6d37973	-6.3024286e-06
27	0xb6d1e34f	-6.2551476e-06
28	0xb336b304	-4.253799e-08
29	0xb5ccb130	-1.5250753e-06
30	0xb6133474	-2.1935239e-06
31	0xb5859f45	-9.955626e-07
32	0x32cb4736	2.3664693e-08
33	0xb644823a	-2.9282078e-06
34	0xb68ac145	-4.13522e-06
35	0xb6fcdf6f	-7.5361963e-06
36	0xb68a85f1	-4.1283133e-06
37	0xb528e776	-6.2921697e-07
38	0xb504a401	-4.941249e-07
39	0xb56f4230	-8.9130754e-07
40	0xb516f169	-5.623065e-07
41	0xb4442969	-1.8268987e-07
42	0xb6991345	-4.5619986e-06
43	0xb5c9f3ed	-1.5046659e-06
44	0xb689e7e6	-4.1099147e-06
45	0xb6306373	-2.628393e-06
46	0xb53e2cf6	-7.084594e-07
47	0xb5385308	-6.866617e-07
48	0xb505cedb	-4.9847375e-07
49	0xb4ad7ab4	-3.231304e-07
50	0xb48ee447	-2.6615655e-07
51	0xb5a797b1	-1.2486618e-06
52	0xb54b6131	-7.5764825e-07
53	0xb64e60fc	-3.0752844e-06
54	0xb681d2f2	-3.869057e-06
55	0xb5366e9f	-6.796126e-07
56	0xb5a60d05	-1.2371753e-06
57	0xb602f45b	-1.9513743e-06
58	0xb5a57faf	-1.2330619e-06
59	0xb4910d90	-2.7018223e-07
60	0xb6345d46	-2.6876382e-06
61	0xb660626c	-3.343589e-06
62	0xb6fec31d	-7.592504e-06
63	0xb67ce18b	-3.768221e-06
64	0xb587371f	-1.0074326e-06
65	0xb5577842	-8.026874e-07
66	0xb5cad81e	-1.5113071e-06
67	0xb5b11d63	-1.319608e-06
68	0xb4d30608	-3.93062e-07
69	0xb686c696	-4.0166296e-06
70	0xb654083e	-3.159526e-06
71	0xb6d0dd2e	-6.2246318e-06
72	0xb62e3054	-2.5956151e-06
73	0xb4e4a16c	-4.258576e-07
74	0xb539690a	-6.907072e-07
75	0xb594411d	-1.104581e-06
76	0xb53fd2d0	-7.145982e-07
77	0xb4ae712d	-3.2492372e-07
78	0xb5b6fa91	-1.3632981e-06
79	0xb5fb4840	-1.8721985e-06
80	0xb69e10b2	-4.7107105e-06
81	0xb68cf4fc	-4.200845e-06
82	0xb59b0f0b	-1.1552778e-06
83	0xb55c94d4	-8.217296e-07
84	0xb4db99a0	-4.0903706e-07
85	0xb488465e	-2.5383173e-07
86	0xb4a40993	-3.0554347e-07
87	0xb6d53867	-6.3544608e-06
88	0xb5994bef	-1.1421488e-06
89	0xb66f83b5	-3.5690439e-06
90	0xb6eb3275	-7.0094197e-06
91	0xb52545bd	-6.156877e-07
92	0xb5ace39a	-1.2881239e-06
93	0xb6564343	-3.1927636e-06
94	0xb63afed1	-2.7864482e-06
95	0xb4f15379	-4.4950482e-07
96	0xb6886953	-4.065377e-06
97	0xb6ecf013	-7.0612964e-06
98	0xb721a215	-9.6340855e-06
99	0xb5c1a679	-1.442807e-06
100	0xb52ea63d	-6.506196e-07
101	0xb527f0d2	-6.256279e-07
102	0xb4d72e7c	-4.0080693e-07
103	0xb4786423	-2.313323e-07
104	0xb46ee7b6	-2.2249773e-07
105	0xb59c8a6b	-1.1663191e-06
106	0xb57d94bd	-9.446629e-07
107	0xb66463c1	-3.4032712e-06
108	0xb67e22f5	-3.7869297e-06
109	0xb5de9e49	-1.6586356e-06
110	0xb579da33	-9.307725e-07
111	0xb533ea3d	-6.702356e-07
112	0xb492044a	-2.719774e-07
113	0xb528c06f	-6.2864905e-07
114	0xb6c68d5f	-5.9173176e-06
115	0xb6407842	-2.8680229e-06
116	0xb69a8134	-4.604599e-06
117	0xb63ab794	-2.7823016e-06
118	0xb51f0856	-5.9244246e-07
119	0xb580311c	-9.551036e-07
120	0xb5057e02	-4.9729726e-07
121	0xb4f42305	-4.5474022e-07
122	0xb4c024e6	-3.5789634e-07
123	0xb2d11a90	-2.4342881e-08
124	0xb523154e	-6.0753234e-07
125	0xb697507b	-4.50952e-06
126	0xb642261c	-2.8930435e-06
127	0xb54da5d6	-7.6609774e-07
128	0xb53d8f26	-7.0616295e-07
129	0xb514a6df	-5.5377126e-07
130	0xb4850683	-2.4777918e-07
131	0xb47b84b9	-2.3424481e-07
132	0xb65af0a7	-3.262461e-06
133	0xb58f228f	-1.0664388e-06
134	0xb627d9ba	-2.5011673e-06
135	0xb638bc8b	-2.7527883e-06
136	0xb575cd49	-9.156834e-07
137	0xb52eaea9	-6.5074215e-07
138	0xb46cc331	-2.2050223e-07
139	0xb47b4d9a	-2.3404428e-07
140	0xb48145cb	-2.4078903e-07
141	0xb654149f	-3.1602465e-06
142	0xb5a027b3	-1.1932483e-06
143	0xb64f9800	-3.093388e-06
144	0xb5cee8cb	-1.5415948e-06
145	0xb4a39a4f	-3.047339e-07
146	0xb4a79fa5	-3.122233e-07
147	0xb4eaf393	-4.376312e-07
148	0xb52d8b6d	-6.4650413e-07
149	0xb3f6c9be	-1.14919644e-07
150	0xb5ffc32f	-1.9055786e-06
151	0xb54505fd	-7.3396933e-07
152	0xb6291ca1	-2.5199627e-06
153	0xb682df9a	-3.9003326e-06
154	0xb47e329b	-2.3674004e-07
155	0xb4bf2894	-3.5606047e-07
156	0xb54b1bbc	-7.566375e-07
157	0xb5d663a5	-1.5973243e-06
158	0xb4663d47	-2.1442712e-07
159	0xb63e0d0e	-2.8319805e-06
160	0xb6365ce2	-2.7174178e-06
161	0xb66ada51	-3.4995794e-06
162	0xb693f146	-4.4090293e-06
163	0xb5b22880	-1.327382e-06
164	0xb5bd3e16	-1.4099667e-06
165	0xb501ac75	-4.8307203e-07
166	0xb4b13ca0	-3.301293e-07
167	0xb56563ff	-8.545466e-07
168	0xb644f2c0	-2.9347575e-06
169	0xb59d9eab	-1.174359e-06
170	0xb6a01947	-4.7713143e-06
171	0xb70a793d	-8.253669e-06
172	0xb51d18f1	-5.852335e-07
173	0xb617a5c4	-2.2597242e-06
174	0xb6758b23	-3.6588833e-06
175	0xb61ac7d3	-2.3064101e-06
176	0xb497af01	-2.8253274e-07
177	0xb6dee4f4	-6.642769e-06
178	0xb7057021	-7.953525e-06
179	0xb7732d7d	-1.449452e-05
180	0xb69a4e25	-4.598655e-06
181	0xb577f3a1	-9.2369197e-07
182	0xb58baea3	-1.0407133e-06
183	0xb47fb506	-2.3814582e-07
184	0xb4a0f049	-2.9977153e-07
185	0xb51a5390	-5.749107e-07
186	0xb680266b	-3.8191697e-06
187	0xb5a864ac	-1.2546275e-06
188	0xb6924229	-4.358841e-06
189	0xb6890c3b	-4.084342e-06
190	0xb5e7729a	-1.7244195e-06
191	0xb5915dcc	-1.083064e-06
192	0xb4bdd8a2	-3.5361614e-07
193	0xb4af23b2	-3.2622262e-07
194	0xb4fb630c	-4.682446e-07
195	0xb6c54ed7	-5.8802357e-06
196	0xb5c08784	-1.4344555e-06
197	0xb68d8eca	-4.2187503e-06
198	0xb6851ac2	-3.966824e-06
199	0xb5b6dc94	-1.3624253e-06
200	0xb5b359e2	-1.3362699e-06
201	0xb4bfaafb	-3.5700927e-07
202	0xb4cd0062	-3.8184504e-07
203	0xb530b738	-6.583173e-07
204	0xb67395ce	-3.629702e-06
205	0xb5efec01	-1.7875574e-06
206	0xb6b57e4a	-5.4089223e-06
207	0xb65b84fe	-3.2710955e-06
208	0xb5a41d1f	-1.2227428e-06
209	0xb54aa1d5	-7.548636e-07
210	0xb490b3a1	-2.6952787e-07
211	0xb4c7d7cb	-3.7223649e-07
212	0xb48b3e6a	-2.593618e-07
213	0xb589d9e8	-1.0270714e-06
214	0xb55dafa9	-8.2584535e-07
215	0xb6728d30	-3.6142992e-06
216	0xb683f150	-3.9321967e-06
217	0xb5389d2b	-6.877405e-07
218	0xb59d744a	-1.1731256e-06
219	0xb5c8060a	-1.4902919e-06
220	0xb593e1a6	-1.1018026e-06
221	0xb4b7ead9	-3.425728e-07
222	0xb617bc16	-2.2610234e-06
223	0xb629af51	-2.528501e-06
224	0xb6bb59ee	-5.5835035e-06
225	0xb6a0d122	-4.792718e-06
226	0xb5d87891	-1.6128344e-06
227	0xb58fe989	-1.0722298e-06
228	0xb4cc58c5	-3.806255e-07
229	0xb4d26951	-3.9192176e-07
230	0xb5054478	-4.9645996e-07
231	0xb6b74075	-5.461329e-06
232	0xb5e38778	-1.6952245e-06
233	0xb69a215f	-4.5934426e-06
234	0xb697ace8	-4.5202796e-06
235	0xb5e3f009	-1.6982677e-06
236	0xb59c5779	-1.1648364e-06
237	0xb4b2b801	-3.3288964e-07
238	0xb4d88b06	-4.0334288e-07
239	0xb57ef1f2	-9.497445e-07
240	0xb6c96ee1	-6.003175e-06
241	0xb61f0e2c	-2.3701095e-06
242	0xb6baa57b	-5.5624964e-06
243	0xb5b71d6a	-1.3643123e-06
244	0xb3314658	-4.1275e-08
245	0xb46a57c2	-2.1824874e-07
246	0xb52653e9	-6.1961924e-07
247	0xb507e597	-5.0625516e-07
248	0xb45b6ec4	-2.043626e-07
249	0xb5ef0777	-1.780906e-06
250	0xb57b2b8f	-9.356817e-07
251	0xb656eaad	-3.2025084e-06
252	0xb667af22	-3.4523623e-06
253	0xb5825863	-9.711479e-07
254	0xb55a4def	-8.1324737e-07
255	0xb58b10a6	-1.0361152e-06

exp_avg_sq f4 [256, 9]
0	0x3809942d	3.2801345e-05
1	0x36d79f36	6.426034e-06
2	0x36c78b63	5.946889e-06
3	0x36590f9b	3.2344603e-06
4	0x35a8c985	1.2575625e-06
5	0x3787bb8d	1.618059e-05
6	0x35a5216e	1.2303187e-06
7	0x373f4740	1.1401076e-05
8	0x37b85fc0	2.1979096e-05
9	0x3723d624	9.765416e-06
10	0x344f80b5	1.93252e-07
11	0x36fbbb7f	7.5022103e-06
12	0x3408e81a	1.2750425e-07
13	0x374cf003	1.221523e-05
14	0x35ca682d	1.5080492e-06
15	0x355f1d91	8.3117e-07
16	0x36fd9551	7.5573703e-06
17	0x38d0f324	9.963501e-05
18	0x38de8e65	0.00010612308
19	0x35ee0fab	1.7736942e-06
20	0x382da91c	4.140391e-05
21	0x3465367d	2.134711e-07
22	0x381a08b0	3.6724552e-05
23	0x375563e8	1.2719051e-05
24	0x36a06e2e	4.781198e-06
25	0x38011e35	3.078413e-05
26	0x397444eb	0.00023295327
27	0x38cd2052	9.781182e-05
28	0x341c23c8	1.454165e-07
29	0x3821abc9	3.854538e-05
30	0x326e4b60	1.3870562e-08
31	0x38398c93	4.4238357e-05
32	0x37c1a929	2.3086164e-05
33	0x34e7eea3	4.3200734e-07
34	0x3892bca7	6.996962e-05
35	0x3a58ad00	0.0008265525
36	0x391f6b65	0.00015203429
37	0x3740f487	1.1501025e-05
38	0x36456167	2.9411983e-06
39	0x36a1aeef	4.818539e-06
40	0x3671558d	3.5961596e-06
41	0x360a8b34	2.064463e-06
42	0x38066e55	3.2050844e-05
43	0x37887631	1.62675e-05
44	0x39cdf985	0.00039286554
45	0x37bdf46d	2.2644375e-05
46	0x37299d3e	1.0109796e-05
47	0x36cf3de4	6.1762858e-06
48	0x356d6038	8.8429397e-07
49	0x33e190df	1.0503731e-07
50	0x369db8df	4.7004864e-06
51	0x33783997	5.7794377e-08
52	0x37252a4c	9.844614e-06
53	0x378ee6f5	1.7035267e-05
54	0x39393e2b	0.00017666134
55	0x37608d4f	1.3384341e-05
56	0x37c6dc57	2.3706043e-05
57	0x346867c0	2.1644428e-07
58	0x3645a2ee	2.9450125e-06
59	0x37e46344	2.7225942e-05
60	0x361b1462	2.3108664e-06
61	0x3811f9a2	3.4803183e-05
62	0x39d2e726	0.0004022654
63	0x389cfc44	7.485648e-05
64	0x3806f906	3.218001e-05
65	0x3740ea77	1.1498682e-05
66	0x360816ad	2.0278778e-06
67	0x36ed3e2d	7.0703886e-06
68	0x37a80da0	2.0033505e-05
69	0x370c5809	8.365148e-06
70	0x389704de	7.201148e-05
71	0x39921837	0.00027865332
72	0x3909818d	0.000131136
73	0x37006191	7.652111e-06
74	0x382e7746	4.1595915e-05
75	0x348368d9	2.4476938e-07
76	0x36a335ef	4.8640572e-06
77	0x366a7f97	3.4942984e-06
78	0x360f5d51	2.1362978e-06
79	0x3785d45b	1.5953721e-05
80	0x38d6748c	0.00010226024
81	0x390c5aed	0.00013385313
82	0x3882f246	6.24401e-05
83	0x373a61b3	1.1109211e-05
84	0x3751635b	1.2480504e-05
85	0x371d5b4f	9.379189e-06
86	0x37a89bee	2.0099771e-05
87	0x39700904	0.00022891542
88	0x3867e47d	5.5287488e-05
89	0x389ba956	7.422517e-05
90	0x39f6c7f6	0.0004706976
91	0x3775bfe0	1.4647812e-05
92	0x39918d5e	0.00027761882
93	0x34a7ab2a	3.1230712e-07
94	0x3837fc61	4.3865646e-05
95	0x378d623e	1.6854257e-05
96	0x3855cfac	5.0976567e-05
97	0x38096958	3.2761454e-05
98	0x3aab3cfb	0.0013064438
99	0x3724190c	9.780993e-06
100	0x37155eee	8.903195e-06
101	0x374d3b50	1.2232762e-05
102	0x3613dc3f	2.2032907e-06
103	0x362fdd41	2.6205819e-06
104	0x35a68d60	1.2409109e-06
105	0x35055191	4.9665056e-07
106	0x37a18920	1.925655e-05
107	0x37a6f5fa	1.9903284e-05
108	0x38db1f1d	0.00010448529
109	0x392a4e27	0.00016241577
110	0x379b845e	1.8539078e-05
111	0x3859b421	5.190459e-05
112	0x379ad40f	1.8456978e-05
113	0x39607d20	0.00021408917
114	0x38dae3f7	0.00010437512
115	0x39b25759	0.00034015885
116	0x3999d26d	0.00029339214
117	0x39a6cccd	0.00031814576
118	0x37926009	1.7449276e-05
119	0x388ef1e5	6.816144e-05
120	0x36231c24	2.4305273e-06
121	0x389d27b6	7.49374e-05
122	0x37ebb7fb	2.8099856e-05
123	0x381ecec7	3.7862712e-05
124	0x38c162ea	9.221381e-05
125	0x395a42ff	0.00020815058
126	0x389f41ab	7.5939424e-05
127	0x37ac3ea7	2.0533173e-05
128	0x37586aac	1.289944e-05
129	0x365f4f5c	3.3275783e-06
130	0x34c4265f	3.6535764e-07
131	0x3721e6e2	9.650104e-06
132	0x37a98014	2.0206011e-05
133	0x380170ec	3.0861163e-05
134	0x38ace8c8	8.244958e-05
135	0x3877f78b	5.911993e-05
136	0x3814a918	3.544343e-05
137	0x36c9ace6	6.010395e-06
138	0x360801fc	2.0266734e-06
139	0x370a0490	8.226503e-06
140	0x3744ed7e	1.1737806e-05
141	0x38708a2b	5.7349138e-05
142	0x38964343	7.165086e-05
143	0x3925ca49	0.00015810983
144	0x371c78c0	9.326439e-06
145	0x3671d581	3.6036074e-06
146	0x35e9f839	1.7432095e-06
147	0x332160fe	3.7573948e-08
148	0x35d3e27a	1.5786638e-06
149	0x36d3cc2e	6.3120597e-06
150	0x36d27f3e	6.2733006e-06
151	0x3629fb85	2.5329366e-06
152	0x3762d3d2	1.3519968e-05
153	0x38d0f43d	9.963706e-05
154	0x35dcb1c9	1.644302e-06
155	0x37093671	8.178512e-06
156	0x32b6d5ac	2.1284755e-08
157	0x36c18349	5.767132e-06
158	0x36929320	4.3682667e-06
159	0x370be8ea	8.339275e-06
160	0x37ba7352	2.2226628e-05
161	0x39133817	0.00014039908
162	0x399c4d4b	0.00029812226
163	0x38ab55e1	8.1699116e-05
164	0x3837ea82	4.3849002e-05
165	0x37a5a364	1.9745617e-05
166	0x3742d985	1.1613946e-05
167	0x39c4cd75	0.0003753711
168	0x37dfab77	2.6663516e-05
169	0x38f48327	0.00011659256
170	0x394194c5	0.00018461335
171	0x3996ed19	0.0002878688
172	0x36ebdb4c	7.0290753e-06
173	0x385f4a30	5.3236436e-05
174	0x36192b80	2.2824097e-06
175	0x38b01b71	8.397445e-05
176	0x36a1e8f8	4.825295e-06
177	0x370b1696	8.290304e-06
178	0x378407fd	1.5739346e-05
179	0x39d7dd40	0.0004117284
180	0x3957f214	0.00020594179
181	0x38846952	6.313868e-05
182	0x37b5a253	2.165247e-05
183	0x37612c36	1.3421339e-05
184	0x3745daa0	1.1793018e-05
185	0x391e3f91	0.00015091735
186	0x38d8b44d	0.00010333266
187	0x38ed1846	0.00011305562
188	0x3935d70f	0.0001734162
189	0x39188d97	0.00014548596
190	0x391339d1	0.00014040551
191	0x37912d08	1.7306316e-05
192	0x3716604b	8.963117e-06
193	0x37b79681	2.1885384e-05
194	0x38b51063	8.633805e-05
195	0x399853c2	0.00029054104
196	0x38e8f0a8	0.00011107448
197	0x38e8b31b	0.00011095983
198	0x39383678	0.00017567899
199	0x38b7e7f2	8.769323e-05
200	0x37e5965a	2.736894e-05
201	0x3741d507	1.1553296e-05
202	0x376b7b5a	1.4035812e-05
203	0x3951bd41	0.00020002296
204	0x38ed8eb4	0.00011327621
205	0x395fbfaa	0.00021338338
206	0x395d3846	0.00021097166
207	0x38a5440b	7.880487e-05
208	0x3850bf03	4.9768958e-05
209	0x377e3ac1	1.51532595e-05
210	0x34dd48cc	4.1217424e-07
211	0x3493a031	2.7497438e-07
212	0x3609fc35	2.0561395e-06
213	0x3549a1d1	7.511381e-07
214	0x37dc6090	2.627101e-05
215	0x371ab126	9.220361e-06
216	0x3958e888	0.0002068599
217	0x3782c4c7	1.558884e-05
218	0x37ad1ccc	2.0636617e-05
219	0x34c74b99	3.7121643e-07
220	0x3837e665	4.384517e-05
221	0x36c7973d	5.9482686e-06
222	0x36f31019	7.2438384e-06
223	0x37a14da1	1.9228844e-05
224	0x3991b4a9	0.00027791157
225	0x39361c31	0.00017367375
226	0x38fd7adf	0.000120868666
227	0x37845172	1.5773552e-05
228	0x371a87a8	9.2107e-06
229	0x3760d6f1	1.3401485e-05
230	0x388026df	6.110756e-05
231	0x38b16e2e	8.46054e-05
232	0x38fd240b	0.000120706936
233	0x384dd767	4.9076418e-05
234	0x392f6a65	0.00016728936
235	0x3947cdc5	0.00019054774
236	0x378e5f18	1.6972e-05
237	0x37d1f1f6	2.5027413e-05
238	0x385f5c0e	5.3253076e-05
239	0x3a11ad12	0.00055571005
240	0x39771e51	0.0002356705
241	0x399bd710	0.00029724138
242	0x39c01a9c	0.0003664092
243	0x379a3683	1.8383615e-05
244	0x3569f5a6	8.715673e-07
245	0x3505e6fd	4.9882493e-07
246	0x33ffeebf	1.19177905e-07
247	0x3650aecd	3.1096163e-06
248	0x360a6309	2.0621248e-06
249	0x3558ee09	8.081266e-07
250	0x3621e20b	2.4122444e-06
251	0x388742d6	6.449751e-05
252	0x3897bee9	7.235801e-05
253	0x37e6a65a	2.74956e-05
254	0x3724c255	9.820408e-06
255	0x360e3b3d	2.119413e-06
